…
2/v6/log', threshold_loss_scale=None, tokenizer=None, train_subset='train', truncate_source=False, update_freq=[1], upsample_primary=1, use_bmuf=False, user_dir=None, valid_subset='valid', validate_interval=1, warmup_init_lr=1e-07, warmup_updates=1000, weight_decay=0.0)
| [triple] dictionary: 1000 types
| [lex] dictionary: 1000 types
| loaded 4313 examples from: ../format/BPE_1_000/valid.triple-lex.triple
| loaded 4313 examples from: ../format/BPE_1_000/valid.triple-lex.lex
| ../format/BPE_1_000 valid triple-lex 4313 examples
TransformerModel(
  (encoder): TransformerEncoder(
    (embed_tokens): Embedding(1000, 256, padding_idx=1)
    (embed_positions): SinusoidalPositionalEmbedding()
    (layers): ModuleList(
      (0): TransformerEncoderLayer(
        (self_attn): MultiheadAttention(
          (k_proj): Linear(in_features=256, out_features=256, bias=True)
          (v_proj): Linear(in_features=256, out_features=256, bias=True)
          (q_proj): Linear(in_features=256, out_features=256, bias=True)
          (out_proj): Linear(in_features=256, out_features=256, bias=True)
        )
        (self_attn_layer_norm): LayerNorm((256,), eps=1e-05, elementwise_affine=True)
        (fc1): Linear(in_features=256, out_features=1024, bias=True)
        (fc2): Linear(in_features=1024, out_features=256, bias=True)
        (final_layer_norm): LayerNorm((256,), eps=1e-05, elementwise_affine=True)
      )
      (1): TransformerEncoderLayer(
        (self_attn): MultiheadAttention(
          (k_proj): Linear(in_features=256, out_features=256, bias=True)
          (v_proj): Linear(in_features=256, out_features=256, bias=True)
          (q_proj): Linear(in_features=256, out_features=256, bias=True)
          (out_proj): Linear(in_features=256, out_features=256, bias=True)
        )
        (self_attn_layer_norm): LayerNorm((256,), eps=1e-05, elementwise_affine=True)
        (fc1): Linear(in_features=256, out_features=1024, bias=True)
        (fc2): Linear(in_features=1024, out_features=256, bias=True)
        (final_layer_norm): LayerNorm((256,), eps=1e-05, elementwise_affine=True)
      )
      (2): TransformerEncoderLayer(
        (self_attn): MultiheadAttention(
          (k_proj): Linear(in_features=256, out_features=256, bias=True)
          (v_proj): Linear(in_features=256, out_features=256, bias=True)
          (q_proj): Linear(in_features=256, out_features=256, bias=True)
          (out_proj): Linear(in_features=256, out_features=256, bias=True)
        )
        (self_attn_layer_norm): LayerNorm((256,), eps=1e-05, elementwise_affine=True)
        (fc1): Linear(in_features=256, out_features=1024, bias=True)
        (fc2): Linear(in_features=1024, out_features=256, bias=True)
        (final_layer_norm): LayerNorm((256,), eps=1e-05, elementwise_affine=True)
      )
      (3): TransformerEncoderLayer(
        (self_attn): MultiheadAttention(
          (k_proj): Linear(in_features=256, out_features=256, bias=True)
          (v_proj): Linear(in_features=256, out_features=256, bias=True)
          (q_proj): Linear(in_features=256, out_features=256, bias=True)
          (out_proj): Linear(in_features=256, out_features=256, bias=True)
        )
        (self_attn_layer_norm): LayerNorm((256,), eps=1e-05, elementwise_affine=True)
        (fc1): Linear(in_features=256, out_features=1024, bias=True)
        (fc2): Linear(in_features=1024, out_features=256, bias=True)
        (final_layer_norm): LayerNorm((256,), eps=1e-05, elementwise_affine=True)
      )
    )
  )
  (decoder): TransformerDecoder(
    (embed_tokens): Embedding(1000, 256, padding_idx=1)
    (embed_positions): SinusoidalPositionalEmbedding()
    (layers): ModuleList(
      (0): TransformerDecoderLayer(
        (self_attn): MultiheadAttention(
          (k_proj): Linear(in_features=256, out_features=256, bias=True)
          (v_proj): Linear(in_features=256, out_features=256, bias=True)
          (q_proj): Linear(in_features=256, out_features=256, bias=True)
          (out_proj): Linear(in_features=256, out_features=256, bias=True)
        )
        (self_attn_layer_norm): LayerNorm((256,), eps=1e-05, elementwise_affine=True)
        (encoder_attn): MultiheadAttention(
          (k_proj): Linear(in_features=256, out_features=256, bias=True)
          (v_proj): Linear(in_features=256, out_features=256, bias=True)
          (q_proj): Linear(in_features=256, out_features=256, bias=True)
          (out_proj): Linear(in_features=256, out_features=256, bias=True)
        )
        (encoder_attn_layer_norm): LayerNorm((256,), eps=1e-05, elementwise_affine=True)
        (fc1): Linear(in_features=256, out_features=1024, bias=True)
        (fc2): Linear(in_features=1024, out_features=256, bias=True)
        (final_layer_norm): LayerNorm((256,), eps=1e-05, elementwise_affine=True)
      )
      (1): TransformerDecoderLayer(
        (self_attn): MultiheadAttention(
          (k_proj): Linear(in_features=256, out_features=256, bias=True)
          (v_proj): Linear(in_features=256, out_features=256, bias=True)
          (q_proj): Linear(in_features=256, out_features=256, bias=True)
          (out_proj): Linear(in_features=256, out_features=256, bias=True)
        )
        (self_attn_layer_norm): LayerNorm((256,), eps=1e-05, elementwise_affine=True)
        (encoder_attn): MultiheadAttention(
          (k_proj): Linear(in_features=256, out_features=256, bias=True)
          (v_proj): Linear(in_features=256, out_features=256, bias=True)
          (q_proj): Linear(in_features=256, out_features=256, bias=True)
          (out_proj): Linear(in_features=256, out_features=256, bias=True)
        )
        (encoder_attn_layer_norm): LayerNorm((256,), eps=1e-05, elementwise_affine=True)
        (fc1): Linear(in_features=256, out_features=1024, bias=True)
        (fc2): Linear(in_features=1024, out_features=256, bias=True)
        (final_layer_norm): LayerNorm((256,), eps=1e-05, elementwise_affine=True)
      )
      (2): TransformerDecoderLayer(
        (self_attn): MultiheadAttention(
          (k_proj): Linear(in_features=256, out_features=256, bias=True)
          (v_proj): Linear(in_features=256, out_features=256, bias=True)
          (q_proj): Linear(in_features=256, out_features=256, bias=True)
          (out_proj): Linear(in_features=256, out_features=256, bias=True)
        )
        (self_attn_layer_norm): LayerNorm((256,), eps=1e-05, elementwise_affine=True)
        (encoder_attn): MultiheadAttention(
          (k_proj): Linear(in_features=256, out_features=256, bias=True)
          (v_proj): Linear(in_features=256, out_features=256, bias=True)
          (q_proj): Linear(in_features=256, out_features=256, bias=True)
          (out_proj): Linear(in_features=256, out_features=256, bias=True)
        )
        (encoder_attn_layer_norm): LayerNorm((256,), eps=1e-05, elementwise_affine=True)
        (fc1): Linear(in_features=256, out_features=1024, bias=True)
        (fc2): Linear(in_features=1024, out_features=256, bias=True)
        (final_layer_norm): LayerNorm((256,), eps=1e-05, elementwise_affine=True)
      )
      (3): TransformerDecoderLayer(
        (self_attn): MultiheadAttention(
          (k_proj): Linear(in_features=256, out_features=256, bias=True)
          (v_proj): Linear(in_features=256, out_features=256, bias=True)
          (q_proj): Linear(in_features=256, out_features=256, bias=True)
          (out_proj): Linear(in_features=256, out_features=256, bias=True)
        )
        (self_attn_layer_norm): LayerNorm((256,), eps=1e-05, elementwise_affine=True)
        (encoder_attn): MultiheadAttention(
          (k_proj): Linear(in_features=256, out_features=256, bias=True)
          (v_proj): Linear(in_features=256, out_features=256, bias=True)
          (q_proj): Linear(in_features=256, out_features=256, bias=True)
          (out_proj): Linear(in_features=256, out_features=256, bias=True)
        )
        (encoder_attn_layer_norm): LayerNorm((256,), eps=1e-05, elementwise_affine=True)
        (fc1): Linear(in_features=256, out_features=1024, bias=True)
        (fc2): Linear(in_features=1024, out_features=256, bias=True)
        (final_layer_norm): LayerNorm((256,), eps=1e-05, elementwise_affine=True)
      )
    )
  )
)
| model transformer_iwslt_de_en, criterion LabelSmoothedCrossEntropyCriterion
| num. model params: 7628800 (num. trained: 7628800)
| training on 2 GPUs
| max tokens per GPU = None and max sentences per GPU = 32
| no existing checkpoint found checkpoints/transformer2/v6/che/checkpoint_last.pt
| loading train data for epoch 0
| loaded 34338 examples from: ../format/BPE_1_000/train.triple-lex.triple
…
