…
e=None, tokenizer=None, train_subset='train', truncate_source=False, update_freq=[1], upsample_primary=1, use_bmuf=False, user_dir=None, valid_subset='valid', validate_interval=1, warmup_init_lr=1e-07, warmup_updates=1000, weight_decay=0.0)
| [triple] dictionary: 1000 types
| [lex] dictionary: 1000 types
| loaded 4313 examples from: ../format/BPE_1_000/valid.triple-lex.triple
| loaded 4313 examples from: ../format/BPE_1_000/valid.triple-lex.lex
| ../format/BPE_1_000 valid triple-lex 4313 examples
FConvModelSelfAtt(
  (encoder): CompositeEncoder(
    (encoder): FConvEncoder(
      (embed_tokens): Embedding(1000, 256, padding_idx=1)
      (embed_positions): LearnedPositionalEmbedding(1024, 256, padding_idx=1)
      (fc1): Linear(in_features=256, out_features=128, bias=True)
      (projections): ModuleList(
        (0): None
        (1): None
        (2): Linear(in_features=128, out_features=512, bias=True)
      )
      (convolutions): ModuleList(
        (0): ConvTBC(128, 256, kernel_size=(3,), padding=(0,))
        (1): ConvTBC(128, 256, kernel_size=(3,), padding=(0,))
        (2): ConvTBC(128, 1024, kernel_size=(3,), padding=(0,))
      )
      (attention): ModuleList(
        (0): None
        (1): None
        (2): None
      )
      (attproj): ModuleList()
      (fc2): Linear(in_features=512, out_features=256, bias=True)
    )
  )
  (decoder): FConvDecoder(
    (embed_tokens): Embedding(1000, 256, padding_idx=1)
    (embed_positions): LearnedPositionalEmbedding(1024, 256, padding_idx=1)
    (fc1): Linear(in_features=256, out_features=512, bias=True)
    (projections): ModuleList(
      (0): None
      (1): None
      (2): None
      (3): None
      (4): Linear(in_features=512, out_features=768, bias=True)
      (5): None
      (6): Linear(in_features=768, out_features=1024, bias=True)
    )
    (convolutions): ModuleList(
      (0): LinearizedConvolution(512, 1024, kernel_size=(4,), padding=(3,))
      (1): LinearizedConvolution(512, 1024, kernel_size=(4,), padding=(3,))
      (2): LinearizedConvolution(512, 1024, kernel_size=(4,), padding=(3,))
      (3): LinearizedConvolution(512, 1024, kernel_size=(4,), padding=(3,))
      (4): LinearizedConvolution(512, 1536, kernel_size=(4,), padding=(3,))
      (5): LinearizedConvolution(768, 1536, kernel_size=(4,), padding=(3,))
      (6): LinearizedConvolution(768, 2048, kernel_size=(4,), padding=(3,))
    )
    (attention): ModuleList(
      (0): DownsampledMultiHeadAttention(
        (attention_module): SingleHeadAttention(
          (in_proj_q): Linear(in_features=256, out_features=256, bias=True)
          (in_proj_k): Sequential(
            (0): Linear(in_features=256, out_features=256, bias=True)
          )
          (in_proj_v): Sequential(
            (0): Linear(in_features=256, out_features=256, bias=True)
          )
          (out_proj): Linear(in_features=256, out_features=512, bias=True)
        )
      )
      (1): DownsampledMultiHeadAttention(
        (attention_module): SingleHeadAttention(
          (in_proj_q): Linear(in_features=256, out_features=256, bias=True)
          (in_proj_k): Sequential(
            (0): Linear(in_features=256, out_features=256, bias=True)
          )
          (in_proj_v): Sequential(
            (0): Linear(in_features=256, out_features=256, bias=True)
          )
          (out_proj): Linear(in_features=256, out_features=512, bias=True)
        )
      )
      (2): DownsampledMultiHeadAttention(
        (attention_module): SingleHeadAttention(
          (in_proj_q): Linear(in_features=256, out_features=256, bias=True)
          (in_proj_k): Sequential(
            (0): Linear(in_features=256, out_features=256, bias=True)
          )
          (in_proj_v): Sequential(
            (0): Linear(in_features=256, out_features=256, bias=True)
          )
          (out_proj): Linear(in_features=256, out_features=512, bias=True)
        )
      )
      (3): DownsampledMultiHeadAttention(
        (attention_module): SingleHeadAttention(
          (in_proj_q): Linear(in_features=256, out_features=256, bias=True)
          (in_proj_k): Sequential(
            (0): Linear(in_features=256, out_features=256, bias=True)
          )
          (in_proj_v): Sequential(
            (0): Linear(in_features=256, out_features=256, bias=True)
          )
          (out_proj): Linear(in_features=256, out_features=512, bias=True)
        )
      )
      (4): DownsampledMultiHeadAttention(
        (attention_module): SingleHeadAttention(
          (in_proj_q): Linear(in_features=256, out_features=256, bias=True)
          (in_proj_k): Sequential(
            (0): Linear(in_features=256, out_features=256, bias=True)
          )
          (in_proj_v): Sequential(
            (0): Linear(in_features=256, out_features=256, bias=True)
          )
          (out_proj): Linear(in_features=256, out_features=768, bias=True)
        )
      )
      (5): DownsampledMultiHeadAttention(
        (attention_module): SingleHeadAttention(
          (in_proj_q): Linear(in_features=256, out_features=256, bias=True)
          (in_proj_k): Sequential(
            (0): Linear(in_features=256, out_features=256, bias=True)
          )
          (in_proj_v): Sequential(
            (0): Linear(in_features=256, out_features=256, bias=True)
          )
          (out_proj): Linear(in_features=256, out_features=768, bias=True)
        )
      )
      (6): DownsampledMultiHeadAttention(
        (attention_module): SingleHeadAttention(
          (in_proj_q): Linear(in_features=256, out_features=256, bias=True)
          (in_proj_k): Sequential(
            (0): Linear(in_features=256, out_features=256, bias=True)
          )
          (in_proj_v): Sequential(
            (0): Linear(in_features=256, out_features=256, bias=True)
          )
          (out_proj): Linear(in_features=256, out_features=1024, bias=True)
        )
      )
    )
    (selfattention): ModuleList(
      (0): SelfAttention(
        (attention): DownsampledMultiHeadAttention(
          (0): SingleHeadAttention(
            (in_proj_q): Sequential(
              (0): Linear(in_features=256, out_features=128, bias=True)
              (1): GLU(dim=-1)
              (2): Linear(in_features=64, out_features=64, bias=True)
              (3): GLU(dim=-1)
              (4): Linear(in_features=32, out_features=32, bias=True)
            )
            (in_proj_k): Sequential(
              (0): Downsample()
              (1): Sequential(
                (0): Linear(in_features=256, out_features=128, bias=True)
                (1): GLU(dim=-1)
                (2): Linear(in_features=64, out_features=64, bias=True)
                (3): GLU(dim=-1)
                (4): Linear(in_features=32, out_features=32, bias=True)
              )
            )
            (in_proj_v): Sequential(
              (0): Downsample()
              (1): Sequential(
                (0): Linear(in_features=256, out_features=128, bias=True)
                (1): GLU(dim=-1)
                (2): Linear(in_features=64, out_features=64, bias=True)
                (3): GLU(dim=-1)
                (4): Linear(in_features=32, out_features=32, bias=True)
              )
            )
            (out_proj): Linear(in_features=32, out_features=32, bias=True)
          )
          (1): SingleHeadAttention(
            (in_proj_q): Sequential(
              (0): Linear(in_features=256, out_features=128, bias=True)
              (1): GLU(dim=-1)
              (2): Linear(in_features=64, out_features=64, bias=True)
              (3): GLU(dim=-1)
              (4): Linear(in_features=32, out_features=32, bias=True)
            )
            (in_proj_k): Sequential(
              (0): Downsample()
              (1): Sequential(
                (0): Linear(in_features=256, out_features=128, bias=True)
                (1): GLU(dim=-1)
                (2): Linear(in_features=64, out_features=64, bias=True)
                (3): GLU(dim=-1)
                (4): Linear(in_features=32, out_features=32, bias=True)
              )
            )
            (in_proj_v): Sequential(
              (0): Downsample()
              (1): Sequential(
                (0): Linear(in_features=256, out_features=128, bias=True)
                (1): GLU(dim=-1)
                (2): Linear(in_features=64, out_features=64, bias=True)
                (3): GLU(dim=-1)
                (4): Linear(in_features=32, out_features=32, bias=True)
              )
            )
            (out_proj): Linear(in_features=32, out_features=32, bias=True)
          )
          (2): SingleHeadAttention(
            (in_proj_q): Sequential(
              (0): Linear(in_features=256, out_features=128, bias=True)
              (1): GLU(dim=-1)
              (2): Linear(in_features=64, out_features=64, bias=True)
              (3): GLU(dim=-1)
              (4): Linear(in_features=32, out_features=32, bias=True)
            )
            (in_proj_k): Sequential(
              (0): Downsample()
              (1): Sequential(
                (0): Linear(in_features=256, out_features=128, bias=True)
                (1): GLU(dim=-1)
                (2): Linear(in_features=64, out_features=64, bias=True)
                (3): GLU(dim=-1)
                (4): Linear(in_features=32, out_features=32, bias=True)
              )
            )
            (in_proj_v): Sequential(
              (0): Downsample()
              (1): Sequential(
                (0): Linear(in_features=256, out_features=128, bias=True)
                (1): GLU(dim=-1)
                (2): Linear(in_features=64, out_features=64, bias=True)
                (3): GLU(dim=-1)
                (4): Linear(in_features=32, out_features=32, bias=True)
              )
            )
            (out_proj): Linear(in_features=32, out_features=32, bias=True)
          )
          (3): SingleHeadAttention(
            (in_proj_q): Sequential(
              (0): Linear(in_features=256, out_features=128, bias=True)
              (1): GLU(dim=-1)
              (2): Linear(in_features=64, out_features=64, bias=True)
              (3): GLU(dim=-1)
              (4): Linear(in_features=32, out_features=32, bias=True)
            )
            (in_proj_k): Sequential(
              (0): Downsample()
              (1): Sequential(
                (0): Linear(in_features=256, out_features=128, bias=True)
                (1): GLU(dim=-1)
                (2): Linear(in_features=64, out_features=64, bias=True)
                (3): GLU(dim=-1)
                (4): Linear(in_features=32, out_features=32, bias=True)
              )
            )
            (in_proj_v): Sequential(
              (0): Downsample()
              (1): Sequential(
                (0): Linear(in_features=256, out_features=128, bias=True)
                (1): GLU(dim=-1)
                (2): Linear(in_features=64, out_features=64, bias=True)
                (3): GLU(dim=-1)
                (4): Linear(in_features=32, out_features=32, bias=True)
              )
            )
            (out_proj): Linear(in_features=32, out_features=32, bias=True)
          )
          (4): SingleHeadAttention(
            (in_proj_q): Sequential(
              (0): Linear(in_features=256, out_features=128, bias=True)
              (1): GLU(dim=-1)
              (2): Linear(in_features=64, out_features=64, bias=True)
              (3): GLU(dim=-1)
              (4): Linear(in_features=32, out_features=32, bias=True)
            )
            (in_proj_k): Sequential(
              (0): Downsample()
              (1): Sequential(
                (0): Linear(in_features=256, out_features=128, bias=True)
                (1): GLU(dim=-1)
                (2): Linear(in_features=64, out_features=64, bias=True)
                (3): GLU(dim=-1)
                (4): Linear(in_features=32, out_features=32, bias=True)
              )
            )
            (in_proj_v): Sequential(
              (0): Downsample()
              (1): Sequential(
                (0): Linear(in_features=256, out_features=128, bias=True)
                (1): GLU(dim=-1)
                (2): Linear(in_features=64, out_features=64, bias=True)
                (3): GLU(dim=-1)
                (4): Linear(in_features=32, out_features=32, bias=True)
              )
            )
            (out_proj): Linear(in_features=32, out_features=32, bias=True)
          )
          (5): SingleHeadAttention(
            (in_proj_q): Sequential(
              (0): Linear(in_features=256, out_features=128, bias=True)
              (1): GLU(dim=-1)
              (2): Linear(in_features=64, out_features=64, bias=True)
              (3): GLU(dim=-1)
              (4): Linear(in_features=32, out_features=32, bias=True)
            )
            (in_proj_k): Sequential(
              (0): Downsample()
              (1): Sequential(
                (0): Linear(in_features=256, out_features=128, bias=True)
                (1): GLU(dim=-1)
                (2): Linear(in_features=64, out_features=64, bias=True)
                (3): GLU(dim=-1)
                (4): Linear(in_features=32, out_features=32, bias=True)
              )
            )
            (in_proj_v): Sequential(
              (0): Downsample()
              (1): Sequential(
                (0): Linear(in_features=256, out_features=128, bias=True)
                (1): GLU(dim=-1)
                (2): Linear(in_features=64, out_features=64, bias=True)
                (3): GLU(dim=-1)
                (4): Linear(in_features=32, out_features=32, bias=True)
              )
            )
            (out_proj): Linear(in_features=32, out_features=32, bias=True)
          )
          (6): SingleHeadAttention(
            (in_proj_q): Sequential(
              (0): Linear(in_features=256, out_features=128, bias=True)
              (1): GLU(dim=-1)
              (2): Linear(in_features=64, out_features=64, bias=True)
              (3): GLU(dim=-1)
              (4): Linear(in_features=32, out_features=32, bias=True)
            )
            (in_proj_k): Sequential(
              (0): Downsample()
              (1): Sequential(
                (0): Linear(in_features=256, out_features=128, bias=True)
                (1): GLU(dim=-1)
                (2): Linear(in_features=64, out_features=64, bias=True)
                (3): GLU(dim=-1)
                (4): Linear(in_features=32, out_features=32, bias=True)
              )
            )
            (in_proj_v): Sequential(
              (0): Downsample()
              (1): Sequential(
                (0): Linear(in_features=256, out_features=128, bias=True)
                (1): GLU(dim=-1)
                (2): Linear(in_features=64, out_features=64, bias=True)
                (3): GLU(dim=-1)
                (4): Linear(in_features=32, out_features=32, bias=True)
              )
            )
            (out_proj): Linear(in_features=32, out_features=32, bias=True)
          )
          (7): SingleHeadAttention(
            (in_proj_q): Sequential(
              (0): Linear(in_features=256, out_features=128, bias=True)
              (1): GLU(dim=-1)
              (2): Linear(in_features=64, out_features=64, bias=True)
              (3): GLU(dim=-1)
              (4): Linear(in_features=32, out_features=32, bias=True)
            )
            (in_proj_k): Sequential(
              (0): Downsample()
              (1): Sequential(
                (0): Linear(in_features=256, out_features=128, bias=True)
                (1): GLU(dim=-1)
                (2): Linear(in_features=64, out_features=64, bias=True)
                (3): GLU(dim=-1)
                (4): Linear(in_features=32, out_features=32, bias=True)
              )
            )
            (in_proj_v): Sequential(
              (0): Downsample()
              (1): Sequential(
                (0): Linear(in_features=256, out_features=128, bias=True)
                (1): GLU(dim=-1)
                (2): Linear(in_features=64, out_features=64, bias=True)
                (3): GLU(dim=-1)
                (4): Linear(in_features=32, out_features=32, bias=True)
              )
            )
            (out_proj): Linear(in_features=32, out_features=32, bias=True)
          )
          (out_proj): Linear(in_features=256, out_features=512, bias=True)
        )
        (in_proj_q): Linear(in_features=512, out_features=256, bias=True)
        (in_proj_k): Linear(in_features=512, out_features=256, bias=True)
        (in_proj_v): Linear(in_features=512, out_features=256, bias=True)
        (ln): LayerNorm((512,), eps=1e-05, elementwise_affine=True)
      )
      (1): SelfAttention(
        (attention): DownsampledMultiHeadAttention(
          (0): SingleHeadAttention(
            (in_proj_q): Sequential(
              (0): Linear(in_features=256, out_features=128, bias=True)
              (1): GLU(dim=-1)
              (2): Linear(in_features=64, out_features=64, bias=True)
              (3): GLU(dim=-1)
              (4): Linear(in_features=32, out_features=32, bias=True)
            )
            (in_proj_k): Sequential(
              (0): Downsample()
              (1): Sequential(
                (0): Linear(in_features=256, out_features=128, bias=True)
                (1): GLU(dim=-1)
                (2): Linear(in_features=64, out_features=64, bias=True)
                (3): GLU(dim=-1)
                (4): Linear(in_features=32, out_features=32, bias=True)
              )
            )
            (in_proj_v): Sequential(
              (0): Downsample()
              (1): Sequential(
                (0): Linear(in_features=256, out_features=128, bias=True)
                (1): GLU(dim=-1)
                (2): Linear(in_features=64, out_features=64, bias=True)
                (3): GLU(dim=-1)
                (4): Linear(in_features=32, out_features=32, bias=True)
              )
            )
            (out_proj): Linear(in_features=32, out_features=32, bias=True)
          )
          (1): SingleHeadAttention(
            (in_proj_q): Sequential(
              (0): Linear(in_features=256, out_features=128, bias=True)
              (1): GLU(dim=-1)
              (2): Linear(in_features=64, out_features=64, bias=True)
              (3): GLU(dim=-1)
              (4): Linear(in_features=32, out_features=32, bias=True)
            )
            (in_proj_k): Sequential(
              (0): Downsample()
              (1): Sequential(
                (0): Linear(in_features=256, out_features=128, bias=True)
                (1): GLU(dim=-1)
                (2): Linear(in_features=64, out_features=64, bias=True)
                (3): GLU(dim=-1)
                (4): Linear(in_features=32, out_features=32, bias=True)
              )
            )
            (in_proj_v): Sequential(
              (0): Downsample()
              (1): Sequential(
                (0): Linear(in_features=256, out_features=128, bias=True)
                (1): GLU(dim=-1)
                (2): Linear(in_features=64, out_features=64, bias=True)
                (3): GLU(dim=-1)
                (4): Linear(in_features=32, out_features=32, bias=True)
              )
            )
            (out_proj): Linear(in_features=32, out_features=32, bias=True)
          )
          (2): SingleHeadAttention(
            (in_proj_q): Sequential(
              (0): Linear(in_features=256, out_features=128, bias=True)
              (1): GLU(dim=-1)
              (2): Linear(in_features=64, out_features=64, bias=True)
              (3): GLU(dim=-1)
              (4): Linear(in_features=32, out_features=32, bias=True)
            )
            (in_proj_k): Sequential(
              (0): Downsample()
              (1): Sequential(
                (0): Linear(in_features=256, out_features=128, bias=True)
                (1): GLU(dim=-1)
                (2): Linear(in_features=64, out_features=64, bias=True)
                (3): GLU(dim=-1)
                (4): Linear(in_features=32, out_features=32, bias=True)
              )
            )
            (in_proj_v): Sequential(
              (0): Downsample()
              (1): Sequential(
                (0): Linear(in_features=256, out_features=128, bias=True)
                (1): GLU(dim=-1)
                (2): Linear(in_features=64, out_features=64, bias=True)
                (3): GLU(dim=-1)
                (4): Linear(in_features=32, out_features=32, bias=True)
              )
            )
            (out_proj): Linear(in_features=32, out_features=32, bias=True)
          )
          (3): SingleHeadAttention(
            (in_proj_q): Sequential(
              (0): Linear(in_features=256, out_features=128, bias=True)
              (1): GLU(dim=-1)
              (2): Linear(in_features=64, out_features=64, bias=True)
              (3): GLU(dim=-1)
              (4): Linear(in_features=32, out_features=32, bias=True)
            )
            (in_proj_k): Sequential(
              (0): Downsample()
              (1): Sequential(
                (0): Linear(in_features=256, out_features=128, bias=True)
                (1): GLU(dim=-1)
                (2): Linear(in_features=64, out_features=64, bias=True)
                (3): GLU(dim=-1)
                (4): Linear(in_features=32, out_features=32, bias=True)
              )
            )
            (in_proj_v): Sequential(
              (0): Downsample()
              (1): Sequential(
                (0): Linear(in_features=256, out_features=128, bias=True)
                (1): GLU(dim=-1)
                (2): Linear(in_features=64, out_features=64, bias=True)
                (3): GLU(dim=-1)
                (4): Linear(in_features=32, out_features=32, bias=True)
              )
            )
            (out_proj): Linear(in_features=32, out_features=32, bias=True)
          )
          (4): SingleHeadAttention(
            (in_proj_q): Sequential(
              (0): Linear(in_features=256, out_features=128, bias=True)
              (1): GLU(dim=-1)
              (2): Linear(in_features=64, out_features=64, bias=True)
              (3): GLU(dim=-1)
              (4): Linear(in_features=32, out_features=32, bias=True)
            )
            (in_proj_k): Sequential(
              (0): Downsample()
              (1): Sequential(
                (0): Linear(in_features=256, out_features=128, bias=True)
                (1): GLU(dim=-1)
                (2): Linear(in_features=64, out_features=64, bias=True)
                (3): GLU(dim=-1)
                (4): Linear(in_features=32, out_features=32, bias=True)
              )
            )
            (in_proj_v): Sequential(
              (0): Downsample()
              (1): Sequential(
                (0): Linear(in_features=256, out_features=128, bias=True)
                (1): GLU(dim=-1)
                (2): Linear(in_features=64, out_features=64, bias=True)
                (3): GLU(dim=-1)
                (4): Linear(in_features=32, out_features=32, bias=True)
              )
            )
            (out_proj): Linear(in_features=32, out_features=32, bias=True)
          )
          (5): SingleHeadAttention(
            (in_proj_q): Sequential(
              (0): Linear(in_features=256, out_features=128, bias=True)
              (1): GLU(dim=-1)
              (2): Linear(in_features=64, out_features=64, bias=True)
              (3): GLU(dim=-1)
              (4): Linear(in_features=32, out_features=32, bias=True)
            )
            (in_proj_k): Sequential(
              (0): Downsample()
              (1): Sequential(
                (0): Linear(in_features=256, out_features=128, bias=True)
                (1): GLU(dim=-1)
                (2): Linear(in_features=64, out_features=64, bias=True)
                (3): GLU(dim=-1)
                (4): Linear(in_features=32, out_features=32, bias=True)
              )
            )
            (in_proj_v): Sequential(
              (0): Downsample()
              (1): Sequential(
                (0): Linear(in_features=256, out_features=128, bias=True)
                (1): GLU(dim=-1)
                (2): Linear(in_features=64, out_features=64, bias=True)
                (3): GLU(dim=-1)
                (4): Linear(in_features=32, out_features=32, bias=True)
              )
            )
            (out_proj): Linear(in_features=32, out_features=32, bias=True)
          )
          (6): SingleHeadAttention(
            (in_proj_q): Sequential(
              (0): Linear(in_features=256, out_features=128, bias=True)
              (1): GLU(dim=-1)
              (2): Linear(in_features=64, out_features=64, bias=True)
              (3): GLU(dim=-1)
              (4): Linear(in_features=32, out_features=32, bias=True)
            )
            (in_proj_k): Sequential(
              (0): Downsample()
              (1): Sequential(
                (0): Linear(in_features=256, out_features=128, bias=True)
                (1): GLU(dim=-1)
                (2): Linear(in_features=64, out_features=64, bias=True)
                (3): GLU(dim=-1)
                (4): Linear(in_features=32, out_features=32, bias=True)
              )
            )
            (in_proj_v): Sequential(
              (0): Downsample()
              (1): Sequential(
                (0): Linear(in_features=256, out_features=128, bias=True)
                (1): GLU(dim=-1)
                (2): Linear(in_features=64, out_features=64, bias=True)
                (3): GLU(dim=-1)
                (4): Linear(in_features=32, out_features=32, bias=True)
              )
            )
            (out_proj): Linear(in_features=32, out_features=32, bias=True)
          )
          (7): SingleHeadAttention(
            (in_proj_q): Sequential(
              (0): Linear(in_features=256, out_features=128, bias=True)
              (1): GLU(dim=-1)
              (2): Linear(in_features=64, out_features=64, bias=True)
              (3): GLU(dim=-1)
              (4): Linear(in_features=32, out_features=32, bias=True)
            )
            (in_proj_k): Sequential(
              (0): Downsample()
              (1): Sequential(
                (0): Linear(in_features=256, out_features=128, bias=True)
                (1): GLU(dim=-1)
                (2): Linear(in_features=64, out_features=64, bias=True)
                (3): GLU(dim=-1)
                (4): Linear(in_features=32, out_features=32, bias=True)
              )
            )
            (in_proj_v): Sequential(
              (0): Downsample()
              (1): Sequential(
                (0): Linear(in_features=256, out_features=128, bias=True)
                (1): GLU(dim=-1)
                (2): Linear(in_features=64, out_features=64, bias=True)
                (3): GLU(dim=-1)
                (4): Linear(in_features=32, out_features=32, bias=True)
              )
            )
            (out_proj): Linear(in_features=32, out_features=32, bias=True)
          )
          (out_proj): Linear(in_features=256, out_features=512, bias=True)
        )
        (in_proj_q): Linear(in_features=512, out_features=256, bias=True)
        (in_proj_k): Linear(in_features=512, out_features=256, bias=True)
        (in_proj_v): Linear(in_features=512, out_features=256, bias=True)
        (ln): LayerNorm((512,), eps=1e-05, elementwise_affine=True)
      )
      (2): SelfAttention(
        (attention): DownsampledMultiHeadAttention(
          (0): SingleHeadAttention(
            (in_proj_q): Sequential(
              (0): Linear(in_features=256, out_features=128, bias=True)
              (1): GLU(dim=-1)
              (2): Linear(in_features=64, out_features=64, bias=True)
              (3): GLU(dim=-1)
              (4): Linear(in_features=32, out_features=32, bias=True)
            )
            (in_proj_k): Sequential(
              (0): Downsample()
              (1): Sequential(
                (0): Linear(in_features=256, out_features=128, bias=True)
                (1): GLU(dim=-1)
                (2): Linear(in_features=64, out_features=64, bias=True)
                (3): GLU(dim=-1)
                (4): Linear(in_features=32, out_features=32, bias=True)
              )
            )
            (in_proj_v): Sequential(
              (0): Downsample()
              (1): Sequential(
                (0): Linear(in_features=256, out_features=128, bias=True)
                (1): GLU(dim=-1)
                (2): Linear(in_features=64, out_features=64, bias=True)
                (3): GLU(dim=-1)
                (4): Linear(in_features=32, out_features=32, bias=True)
              )
            )
            (out_proj): Linear(in_features=32, out_features=32, bias=True)
          )
          (1): SingleHeadAttention(
            (in_proj_q): Sequential(
              (0): Linear(in_features=256, out_features=128, bias=True)
              (1): GLU(dim=-1)
              (2): Linear(in_features=64, out_features=64, bias=True)
              (3): GLU(dim=-1)
              (4): Linear(in_features=32, out_features=32, bias=True)
            )
            (in_proj_k): Sequential(
              (0): Downsample()
              (1): Sequential(
                (0): Linear(in_features=256, out_features=128, bias=True)
                (1): GLU(dim=-1)
                (2): Linear(in_features=64, out_features=64, bias=True)
                (3): GLU(dim=-1)
                (4): Linear(in_features=32, out_features=32, bias=True)
              )
            )
            (in_proj_v): Sequential(
              (0): Downsample()
              (1): Sequential(
                (0): Linear(in_features=256, out_features=128, bias=True)
                (1): GLU(dim=-1)
                (2): Linear(in_features=64, out_features=64, bias=True)
                (3): GLU(dim=-1)
                (4): Linear(in_features=32, out_features=32, bias=True)
              )
            )
            (out_proj): Linear(in_features=32, out_features=32, bias=True)
          )
          (2): SingleHeadAttention(
            (in_proj_q): Sequential(
              (0): Linear(in_features=256, out_features=128, bias=True)
              (1): GLU(dim=-1)
              (2): Linear(in_features=64, out_features=64, bias=True)
              (3): GLU(dim=-1)
              (4): Linear(in_features=32, out_features=32, bias=True)
            )
            (in_proj_k): Sequential(
              (0): Downsample()
              (1): Sequential(
                (0): Linear(in_features=256, out_features=128, bias=True)
                (1): GLU(dim=-1)
                (2): Linear(in_features=64, out_features=64, bias=True)
                (3): GLU(dim=-1)
                (4): Linear(in_features=32, out_features=32, bias=True)
              )
            )
            (in_proj_v): Sequential(
              (0): Downsample()
              (1): Sequential(
                (0): Linear(in_features=256, out_features=128, bias=True)
                (1): GLU(dim=-1)
                (2): Linear(in_features=64, out_features=64, bias=True)
                (3): GLU(dim=-1)
                (4): Linear(in_features=32, out_features=32, bias=True)
              )
            )
            (out_proj): Linear(in_features=32, out_features=32, bias=True)
          )
          (3): SingleHeadAttention(
            (in_proj_q): Sequential(
              (0): Linear(in_features=256, out_features=128, bias=True)
              (1): GLU(dim=-1)
              (2): Linear(in_features=64, out_features=64, bias=True)
              (3): GLU(dim=-1)
              (4): Linear(in_features=32, out_features=32, bias=True)
            )
            (in_proj_k): Sequential(
              (0): Downsample()
              (1): Sequential(
                (0): Linear(in_features=256, out_features=128, bias=True)
                (1): GLU(dim=-1)
                (2): Linear(in_features=64, out_features=64, bias=True)
                (3): GLU(dim=-1)
                (4): Linear(in_features=32, out_features=32, bias=True)
              )
            )
            (in_proj_v): Sequential(
              (0): Downsample()
              (1): Sequential(
                (0): Linear(in_features=256, out_features=128, bias=True)
                (1): GLU(dim=-1)
                (2): Linear(in_features=64, out_features=64, bias=True)
                (3): GLU(dim=-1)
                (4): Linear(in_features=32, out_features=32, bias=True)
              )
            )
            (out_proj): Linear(in_features=32, out_features=32, bias=True)
          )
          (4): SingleHeadAttention(
            (in_proj_q): Sequential(
              (0): Linear(in_features=256, out_features=128, bias=True)
              (1): GLU(dim=-1)
              (2): Linear(in_features=64, out_features=64, bias=True)
              (3): GLU(dim=-1)
              (4): Linear(in_features=32, out_features=32, bias=True)
            )
            (in_proj_k): Sequential(
              (0): Downsample()
              (1): Sequential(
                (0): Linear(in_features=256, out_features=128, bias=True)
                (1): GLU(dim=-1)
                (2): Linear(in_features=64, out_features=64, bias=True)
                (3): GLU(dim=-1)
                (4): Linear(in_features=32, out_features=32, bias=True)
              )
            )
            (in_proj_v): Sequential(
              (0): Downsample()
              (1): Sequential(
                (0): Linear(in_features=256, out_features=128, bias=True)
                (1): GLU(dim=-1)
                (2): Linear(in_features=64, out_features=64, bias=True)
                (3): GLU(dim=-1)
                (4): Linear(in_features=32, out_features=32, bias=True)
              )
            )
            (out_proj): Linear(in_features=32, out_features=32, bias=True)
          )
          (5): SingleHeadAttention(
            (in_proj_q): Sequential(
              (0): Linear(in_features=256, out_features=128, bias=True)
              (1): GLU(dim=-1)
              (2): Linear(in_features=64, out_features=64, bias=True)
              (3): GLU(dim=-1)
              (4): Linear(in_features=32, out_features=32, bias=True)
            )
            (in_proj_k): Sequential(
              (0): Downsample()
              (1): Sequential(
                (0): Linear(in_features=256, out_features=128, bias=True)
                (1): GLU(dim=-1)
                (2): Linear(in_features=64, out_features=64, bias=True)
                (3): GLU(dim=-1)
                (4): Linear(in_features=32, out_features=32, bias=True)
              )
            )
            (in_proj_v): Sequential(
              (0): Downsample()
              (1): Sequential(
                (0): Linear(in_features=256, out_features=128, bias=True)
                (1): GLU(dim=-1)
                (2): Linear(in_features=64, out_features=64, bias=True)
                (3): GLU(dim=-1)
                (4): Linear(in_features=32, out_features=32, bias=True)
              )
            )
            (out_proj): Linear(in_features=32, out_features=32, bias=True)
          )
          (6): SingleHeadAttention(
            (in_proj_q): Sequential(
              (0): Linear(in_features=256, out_features=128, bias=True)
              (1): GLU(dim=-1)
              (2): Linear(in_features=64, out_features=64, bias=True)
              (3): GLU(dim=-1)
              (4): Linear(in_features=32, out_features=32, bias=True)
            )
            (in_proj_k): Sequential(
              (0): Downsample()
              (1): Sequential(
                (0): Linear(in_features=256, out_features=128, bias=True)
                (1): GLU(dim=-1)
                (2): Linear(in_features=64, out_features=64, bias=True)
                (3): GLU(dim=-1)
                (4): Linear(in_features=32, out_features=32, bias=True)
              )
            )
            (in_proj_v): Sequential(
              (0): Downsample()
              (1): Sequential(
                (0): Linear(in_features=256, out_features=128, bias=True)
                (1): GLU(dim=-1)
                (2): Linear(in_features=64, out_features=64, bias=True)
                (3): GLU(dim=-1)
                (4): Linear(in_features=32, out_features=32, bias=True)
              )
            )
            (out_proj): Linear(in_features=32, out_features=32, bias=True)
          )
          (7): SingleHeadAttention(
            (in_proj_q): Sequential(
              (0): Linear(in_features=256, out_features=128, bias=True)
              (1): GLU(dim=-1)
              (2): Linear(in_features=64, out_features=64, bias=True)
              (3): GLU(dim=-1)
              (4): Linear(in_features=32, out_features=32, bias=True)
            )
            (in_proj_k): Sequential(
              (0): Downsample()
              (1): Sequential(
                (0): Linear(in_features=256, out_features=128, bias=True)
                (1): GLU(dim=-1)
                (2): Linear(in_features=64, out_features=64, bias=True)
                (3): GLU(dim=-1)
                (4): Linear(in_features=32, out_features=32, bias=True)
              )
            )
            (in_proj_v): Sequential(
              (0): Downsample()
              (1): Sequential(
                (0): Linear(in_features=256, out_features=128, bias=True)
                (1): GLU(dim=-1)
                (2): Linear(in_features=64, out_features=64, bias=True)
                (3): GLU(dim=-1)
                (4): Linear(in_features=32, out_features=32, bias=True)
              )
            )
            (out_proj): Linear(in_features=32, out_features=32, bias=True)
          )
          (out_proj): Linear(in_features=256, out_features=512, bias=True)
        )
        (in_proj_q): Linear(in_features=512, out_features=256, bias=True)
        (in_proj_k): Linear(in_features=512, out_features=256, bias=True)
        (in_proj_v): Linear(in_features=512, out_features=256, bias=True)
        (ln): LayerNorm((512,), eps=1e-05, elementwise_affine=True)
      )
      (3): SelfAttention(
        (attention): DownsampledMultiHeadAttention(
          (0): SingleHeadAttention(
            (in_proj_q): Sequential(
              (0): Linear(in_features=256, out_features=128, bias=True)
              (1): GLU(dim=-1)
              (2): Linear(in_features=64, out_features=64, bias=True)
              (3): GLU(dim=-1)
              (4): Linear(in_features=32, out_features=32, bias=True)
            )
            (in_proj_k): Sequential(
              (0): Downsample()
              (1): Sequential(
                (0): Linear(in_features=256, out_features=128, bias=True)
                (1): GLU(dim=-1)
                (2): Linear(in_features=64, out_features=64, bias=True)
                (3): GLU(dim=-1)
                (4): Linear(in_features=32, out_features=32, bias=True)
              )
            )
            (in_proj_v): Sequential(
              (0): Downsample()
              (1): Sequential(
                (0): Linear(in_features=256, out_features=128, bias=True)
                (1): GLU(dim=-1)
                (2): Linear(in_features=64, out_features=64, bias=True)
                (3): GLU(dim=-1)
                (4): Linear(in_features=32, out_features=32, bias=True)
              )
            )
            (out_proj): Linear(in_features=32, out_features=32, bias=True)
          )
          (1): SingleHeadAttention(
            (in_proj_q): Sequential(
              (0): Linear(in_features=256, out_features=128, bias=True)
              (1): GLU(dim=-1)
              (2): Linear(in_features=64, out_features=64, bias=True)
              (3): GLU(dim=-1)
              (4): Linear(in_features=32, out_features=32, bias=True)
            )
            (in_proj_k): Sequential(
              (0): Downsample()
              (1): Sequential(
                (0): Linear(in_features=256, out_features=128, bias=True)
                (1): GLU(dim=-1)
                (2): Linear(in_features=64, out_features=64, bias=True)
                (3): GLU(dim=-1)
                (4): Linear(in_features=32, out_features=32, bias=True)
              )
            )
            (in_proj_v): Sequential(
              (0): Downsample()
              (1): Sequential(
                (0): Linear(in_features=256, out_features=128, bias=True)
                (1): GLU(dim=-1)
                (2): Linear(in_features=64, out_features=64, bias=True)
                (3): GLU(dim=-1)
                (4): Linear(in_features=32, out_features=32, bias=True)
              )
            )
            (out_proj): Linear(in_features=32, out_features=32, bias=True)
          )
          (2): SingleHeadAttention(
            (in_proj_q): Sequential(
              (0): Linear(in_features=256, out_features=128, bias=True)
              (1): GLU(dim=-1)
              (2): Linear(in_features=64, out_features=64, bias=True)
              (3): GLU(dim=-1)
              (4): Linear(in_features=32, out_features=32, bias=True)
            )
            (in_proj_k): Sequential(
              (0): Downsample()
              (1): Sequential(
                (0): Linear(in_features=256, out_features=128, bias=True)
                (1): GLU(dim=-1)
                (2): Linear(in_features=64, out_features=64, bias=True)
                (3): GLU(dim=-1)
                (4): Linear(in_features=32, out_features=32, bias=True)
              )
            )
            (in_proj_v): Sequential(
              (0): Downsample()
              (1): Sequential(
                (0): Linear(in_features=256, out_features=128, bias=True)
                (1): GLU(dim=-1)
                (2): Linear(in_features=64, out_features=64, bias=True)
                (3): GLU(dim=-1)
                (4): Linear(in_features=32, out_features=32, bias=True)
              )
            )
            (out_proj): Linear(in_features=32, out_features=32, bias=True)
          )
          (3): SingleHeadAttention(
            (in_proj_q): Sequential(
              (0): Linear(in_features=256, out_features=128, bias=True)
              (1): GLU(dim=-1)
              (2): Linear(in_features=64, out_features=64, bias=True)
              (3): GLU(dim=-1)
              (4): Linear(in_features=32, out_features=32, bias=True)
            )
            (in_proj_k): Sequential(
              (0): Downsample()
              (1): Sequential(
                (0): Linear(in_features=256, out_features=128, bias=True)
                (1): GLU(dim=-1)
                (2): Linear(in_features=64, out_features=64, bias=True)
                (3): GLU(dim=-1)
                (4): Linear(in_features=32, out_features=32, bias=True)
              )
            )
            (in_proj_v): Sequential(
              (0): Downsample()
              (1): Sequential(
                (0): Linear(in_features=256, out_features=128, bias=True)
                (1): GLU(dim=-1)
                (2): Linear(in_features=64, out_features=64, bias=True)
                (3): GLU(dim=-1)
                (4): Linear(in_features=32, out_features=32, bias=True)
              )
            )
            (out_proj): Linear(in_features=32, out_features=32, bias=True)
          )
          (4): SingleHeadAttention(
            (in_proj_q): Sequential(
              (0): Linear(in_features=256, out_features=128, bias=True)
              (1): GLU(dim=-1)
              (2): Linear(in_features=64, out_features=64, bias=True)
              (3): GLU(dim=-1)
              (4): Linear(in_features=32, out_features=32, bias=True)
            )
            (in_proj_k): Sequential(
              (0): Downsample()
              (1): Sequential(
                (0): Linear(in_features=256, out_features=128, bias=True)
                (1): GLU(dim=-1)
                (2): Linear(in_features=64, out_features=64, bias=True)
                (3): GLU(dim=-1)
                (4): Linear(in_features=32, out_features=32, bias=True)
              )
            )
            (in_proj_v): Sequential(
              (0): Downsample()
              (1): Sequential(
                (0): Linear(in_features=256, out_features=128, bias=True)
                (1): GLU(dim=-1)
                (2): Linear(in_features=64, out_features=64, bias=True)
                (3): GLU(dim=-1)
                (4): Linear(in_features=32, out_features=32, bias=True)
              )
            )
            (out_proj): Linear(in_features=32, out_features=32, bias=True)
          )
          (5): SingleHeadAttention(
            (in_proj_q): Sequential(
              (0): Linear(in_features=256, out_features=128, bias=True)
              (1): GLU(dim=-1)
              (2): Linear(in_features=64, out_features=64, bias=True)
              (3): GLU(dim=-1)
              (4): Linear(in_features=32, out_features=32, bias=True)
            )
            (in_proj_k): Sequential(
              (0): Downsample()
              (1): Sequential(
                (0): Linear(in_features=256, out_features=128, bias=True)
                (1): GLU(dim=-1)
                (2): Linear(in_features=64, out_features=64, bias=True)
                (3): GLU(dim=-1)
                (4): Linear(in_features=32, out_features=32, bias=True)
              )
            )
            (in_proj_v): Sequential(
              (0): Downsample()
              (1): Sequential(
                (0): Linear(in_features=256, out_features=128, bias=True)
                (1): GLU(dim=-1)
                (2): Linear(in_features=64, out_features=64, bias=True)
                (3): GLU(dim=-1)
                (4): Linear(in_features=32, out_features=32, bias=True)
              )
            )
            (out_proj): Linear(in_features=32, out_features=32, bias=True)
          )
          (6): SingleHeadAttention(
            (in_proj_q): Sequential(
              (0): Linear(in_features=256, out_features=128, bias=True)
              (1): GLU(dim=-1)
              (2): Linear(in_features=64, out_features=64, bias=True)
              (3): GLU(dim=-1)
              (4): Linear(in_features=32, out_features=32, bias=True)
            )
            (in_proj_k): Sequential(
              (0): Downsample()
              (1): Sequential(
                (0): Linear(in_features=256, out_features=128, bias=True)
                (1): GLU(dim=-1)
                (2): Linear(in_features=64, out_features=64, bias=True)
                (3): GLU(dim=-1)
                (4): Linear(in_features=32, out_features=32, bias=True)
              )
            )
            (in_proj_v): Sequential(
              (0): Downsample()
              (1): Sequential(
                (0): Linear(in_features=256, out_features=128, bias=True)
                (1): GLU(dim=-1)
                (2): Linear(in_features=64, out_features=64, bias=True)
                (3): GLU(dim=-1)
                (4): Linear(in_features=32, out_features=32, bias=True)
              )
            )
            (out_proj): Linear(in_features=32, out_features=32, bias=True)
          )
          (7): SingleHeadAttention(
            (in_proj_q): Sequential(
              (0): Linear(in_features=256, out_features=128, bias=True)
              (1): GLU(dim=-1)
              (2): Linear(in_features=64, out_features=64, bias=True)
              (3): GLU(dim=-1)
              (4): Linear(in_features=32, out_features=32, bias=True)
            )
            (in_proj_k): Sequential(
              (0): Downsample()
              (1): Sequential(
                (0): Linear(in_features=256, out_features=128, bias=True)
                (1): GLU(dim=-1)
                (2): Linear(in_features=64, out_features=64, bias=True)
                (3): GLU(dim=-1)
                (4): Linear(in_features=32, out_features=32, bias=True)
              )
            )
            (in_proj_v): Sequential(
              (0): Downsample()
              (1): Sequential(
                (0): Linear(in_features=256, out_features=128, bias=True)
                (1): GLU(dim=-1)
                (2): Linear(in_features=64, out_features=64, bias=True)
                (3): GLU(dim=-1)
                (4): Linear(in_features=32, out_features=32, bias=True)
              )
            )
            (out_proj): Linear(in_features=32, out_features=32, bias=True)
          )
          (out_proj): Linear(in_features=256, out_features=512, bias=True)
        )
        (in_proj_q): Linear(in_features=512, out_features=256, bias=True)
        (in_proj_k): Linear(in_features=512, out_features=256, bias=True)
        (in_proj_v): Linear(in_features=512, out_features=256, bias=True)
        (ln): LayerNorm((512,), eps=1e-05, elementwise_affine=True)
      )
      (4): SelfAttention(
        (attention): DownsampledMultiHeadAttention(
          (0): SingleHeadAttention(
            (in_proj_q): Sequential(
              (0): Linear(in_features=256, out_features=128, bias=True)
              (1): GLU(dim=-1)
              (2): Linear(in_features=64, out_features=64, bias=True)
              (3): GLU(dim=-1)
              (4): Linear(in_features=32, out_features=32, bias=True)
            )
            (in_proj_k): Sequential(
              (0): Downsample()
              (1): Sequential(
                (0): Linear(in_features=256, out_features=128, bias=True)
                (1): GLU(dim=-1)
                (2): Linear(in_features=64, out_features=64, bias=True)
                (3): GLU(dim=-1)
                (4): Linear(in_features=32, out_features=32, bias=True)
              )
            )
            (in_proj_v): Sequential(
              (0): Downsample()
              (1): Sequential(
                (0): Linear(in_features=256, out_features=128, bias=True)
                (1): GLU(dim=-1)
                (2): Linear(in_features=64, out_features=64, bias=True)
                (3): GLU(dim=-1)
                (4): Linear(in_features=32, out_features=32, bias=True)
              )
            )
            (out_proj): Linear(in_features=32, out_features=32, bias=True)
          )
          (1): SingleHeadAttention(
            (in_proj_q): Sequential(
              (0): Linear(in_features=256, out_features=128, bias=True)
              (1): GLU(dim=-1)
              (2): Linear(in_features=64, out_features=64, bias=True)
              (3): GLU(dim=-1)
              (4): Linear(in_features=32, out_features=32, bias=True)
            )
            (in_proj_k): Sequential(
              (0): Downsample()
              (1): Sequential(
                (0): Linear(in_features=256, out_features=128, bias=True)
                (1): GLU(dim=-1)
                (2): Linear(in_features=64, out_features=64, bias=True)
                (3): GLU(dim=-1)
                (4): Linear(in_features=32, out_features=32, bias=True)
              )
            )
            (in_proj_v): Sequential(
              (0): Downsample()
              (1): Sequential(
                (0): Linear(in_features=256, out_features=128, bias=True)
                (1): GLU(dim=-1)
                (2): Linear(in_features=64, out_features=64, bias=True)
                (3): GLU(dim=-1)
                (4): Linear(in_features=32, out_features=32, bias=True)
              )
            )
            (out_proj): Linear(in_features=32, out_features=32, bias=True)
          )
          (2): SingleHeadAttention(
            (in_proj_q): Sequential(
              (0): Linear(in_features=256, out_features=128, bias=True)
              (1): GLU(dim=-1)
              (2): Linear(in_features=64, out_features=64, bias=True)
              (3): GLU(dim=-1)
              (4): Linear(in_features=32, out_features=32, bias=True)
            )
            (in_proj_k): Sequential(
              (0): Downsample()
              (1): Sequential(
                (0): Linear(in_features=256, out_features=128, bias=True)
                (1): GLU(dim=-1)
                (2): Linear(in_features=64, out_features=64, bias=True)
                (3): GLU(dim=-1)
                (4): Linear(in_features=32, out_features=32, bias=True)
              )
            )
            (in_proj_v): Sequential(
              (0): Downsample()
              (1): Sequential(
                (0): Linear(in_features=256, out_features=128, bias=True)
                (1): GLU(dim=-1)
                (2): Linear(in_features=64, out_features=64, bias=True)
                (3): GLU(dim=-1)
                (4): Linear(in_features=32, out_features=32, bias=True)
              )
            )
            (out_proj): Linear(in_features=32, out_features=32, bias=True)
          )
          (3): SingleHeadAttention(
            (in_proj_q): Sequential(
              (0): Linear(in_features=256, out_features=128, bias=True)
              (1): GLU(dim=-1)
              (2): Linear(in_features=64, out_features=64, bias=True)
              (3): GLU(dim=-1)
              (4): Linear(in_features=32, out_features=32, bias=True)
            )
            (in_proj_k): Sequential(
              (0): Downsample()
              (1): Sequential(
                (0): Linear(in_features=256, out_features=128, bias=True)
                (1): GLU(dim=-1)
                (2): Linear(in_features=64, out_features=64, bias=True)
                (3): GLU(dim=-1)
                (4): Linear(in_features=32, out_features=32, bias=True)
              )
            )
            (in_proj_v): Sequential(
              (0): Downsample()
              (1): Sequential(
                (0): Linear(in_features=256, out_features=128, bias=True)
                (1): GLU(dim=-1)
                (2): Linear(in_features=64, out_features=64, bias=True)
                (3): GLU(dim=-1)
                (4): Linear(in_features=32, out_features=32, bias=True)
              )
            )
            (out_proj): Linear(in_features=32, out_features=32, bias=True)
          )
          (4): SingleHeadAttention(
            (in_proj_q): Sequential(
              (0): Linear(in_features=256, out_features=128, bias=True)
              (1): GLU(dim=-1)
              (2): Linear(in_features=64, out_features=64, bias=True)
              (3): GLU(dim=-1)
              (4): Linear(in_features=32, out_features=32, bias=True)
            )
            (in_proj_k): Sequential(
              (0): Downsample()
              (1): Sequential(
                (0): Linear(in_features=256, out_features=128, bias=True)
                (1): GLU(dim=-1)
                (2): Linear(in_features=64, out_features=64, bias=True)
                (3): GLU(dim=-1)
                (4): Linear(in_features=32, out_features=32, bias=True)
              )
            )
            (in_proj_v): Sequential(
              (0): Downsample()
              (1): Sequential(
                (0): Linear(in_features=256, out_features=128, bias=True)
                (1): GLU(dim=-1)
                (2): Linear(in_features=64, out_features=64, bias=True)
                (3): GLU(dim=-1)
                (4): Linear(in_features=32, out_features=32, bias=True)
              )
            )
            (out_proj): Linear(in_features=32, out_features=32, bias=True)
          )
          (5): SingleHeadAttention(
            (in_proj_q): Sequential(
              (0): Linear(in_features=256, out_features=128, bias=True)
              (1): GLU(dim=-1)
              (2): Linear(in_features=64, out_features=64, bias=True)
              (3): GLU(dim=-1)
              (4): Linear(in_features=32, out_features=32, bias=True)
            )
            (in_proj_k): Sequential(
              (0): Downsample()
              (1): Sequential(
                (0): Linear(in_features=256, out_features=128, bias=True)
                (1): GLU(dim=-1)
                (2): Linear(in_features=64, out_features=64, bias=True)
                (3): GLU(dim=-1)
                (4): Linear(in_features=32, out_features=32, bias=True)
              )
            )
            (in_proj_v): Sequential(
              (0): Downsample()
              (1): Sequential(
                (0): Linear(in_features=256, out_features=128, bias=True)
                (1): GLU(dim=-1)
                (2): Linear(in_features=64, out_features=64, bias=True)
                (3): GLU(dim=-1)
                (4): Linear(in_features=32, out_features=32, bias=True)
              )
            )
            (out_proj): Linear(in_features=32, out_features=32, bias=True)
          )
          (6): SingleHeadAttention(
            (in_proj_q): Sequential(
              (0): Linear(in_features=256, out_features=128, bias=True)
              (1): GLU(dim=-1)
              (2): Linear(in_features=64, out_features=64, bias=True)
              (3): GLU(dim=-1)
              (4): Linear(in_features=32, out_features=32, bias=True)
            )
            (in_proj_k): Sequential(
              (0): Downsample()
              (1): Sequential(
                (0): Linear(in_features=256, out_features=128, bias=True)
                (1): GLU(dim=-1)
                (2): Linear(in_features=64, out_features=64, bias=True)
                (3): GLU(dim=-1)
                (4): Linear(in_features=32, out_features=32, bias=True)
              )
            )
            (in_proj_v): Sequential(
              (0): Downsample()
              (1): Sequential(
                (0): Linear(in_features=256, out_features=128, bias=True)
                (1): GLU(dim=-1)
                (2): Linear(in_features=64, out_features=64, bias=True)
                (3): GLU(dim=-1)
                (4): Linear(in_features=32, out_features=32, bias=True)
              )
            )
            (out_proj): Linear(in_features=32, out_features=32, bias=True)
          )
          (7): SingleHeadAttention(
            (in_proj_q): Sequential(
              (0): Linear(in_features=256, out_features=128, bias=True)
              (1): GLU(dim=-1)
              (2): Linear(in_features=64, out_features=64, bias=True)
              (3): GLU(dim=-1)
              (4): Linear(in_features=32, out_features=32, bias=True)
            )
            (in_proj_k): Sequential(
              (0): Downsample()
              (1): Sequential(
                (0): Linear(in_features=256, out_features=128, bias=True)
                (1): GLU(dim=-1)
                (2): Linear(in_features=64, out_features=64, bias=True)
                (3): GLU(dim=-1)
                (4): Linear(in_features=32, out_features=32, bias=True)
              )
            )
            (in_proj_v): Sequential(
              (0): Downsample()
              (1): Sequential(
                (0): Linear(in_features=256, out_features=128, bias=True)
                (1): GLU(dim=-1)
                (2): Linear(in_features=64, out_features=64, bias=True)
                (3): GLU(dim=-1)
                (4): Linear(in_features=32, out_features=32, bias=True)
              )
            )
            (out_proj): Linear(in_features=32, out_features=32, bias=True)
          )
          (out_proj): Linear(in_features=256, out_features=768, bias=True)
        )
        (in_proj_q): Linear(in_features=768, out_features=256, bias=True)
        (in_proj_k): Linear(in_features=768, out_features=256, bias=True)
        (in_proj_v): Linear(in_features=768, out_features=256, bias=True)
        (ln): LayerNorm((768,), eps=1e-05, elementwise_affine=True)
      )
      (5): SelfAttention(
        (attention): DownsampledMultiHeadAttention(
          (0): SingleHeadAttention(
            (in_proj_q): Sequential(
              (0): Linear(in_features=256, out_features=128, bias=True)
              (1): GLU(dim=-1)
              (2): Linear(in_features=64, out_features=64, bias=True)
              (3): GLU(dim=-1)
              (4): Linear(in_features=32, out_features=32, bias=True)
            )
            (in_proj_k): Sequential(
              (0): Downsample()
              (1): Sequential(
                (0): Linear(in_features=256, out_features=128, bias=True)
                (1): GLU(dim=-1)
                (2): Linear(in_features=64, out_features=64, bias=True)
                (3): GLU(dim=-1)
                (4): Linear(in_features=32, out_features=32, bias=True)
              )
            )
            (in_proj_v): Sequential(
              (0): Downsample()
              (1): Sequential(
                (0): Linear(in_features=256, out_features=128, bias=True)
                (1): GLU(dim=-1)
                (2): Linear(in_features=64, out_features=64, bias=True)
                (3): GLU(dim=-1)
                (4): Linear(in_features=32, out_features=32, bias=True)
              )
            )
            (out_proj): Linear(in_features=32, out_features=32, bias=True)
          )
          (1): SingleHeadAttention(
            (in_proj_q): Sequential(
              (0): Linear(in_features=256, out_features=128, bias=True)
              (1): GLU(dim=-1)
              (2): Linear(in_features=64, out_features=64, bias=True)
              (3): GLU(dim=-1)
              (4): Linear(in_features=32, out_features=32, bias=True)
            )
            (in_proj_k): Sequential(
              (0): Downsample()
              (1): Sequential(
                (0): Linear(in_features=256, out_features=128, bias=True)
                (1): GLU(dim=-1)
                (2): Linear(in_features=64, out_features=64, bias=True)
                (3): GLU(dim=-1)
                (4): Linear(in_features=32, out_features=32, bias=True)
              )
            )
            (in_proj_v): Sequential(
              (0): Downsample()
              (1): Sequential(
                (0): Linear(in_features=256, out_features=128, bias=True)
                (1): GLU(dim=-1)
                (2): Linear(in_features=64, out_features=64, bias=True)
                (3): GLU(dim=-1)
                (4): Linear(in_features=32, out_features=32, bias=True)
              )
            )
            (out_proj): Linear(in_features=32, out_features=32, bias=True)
          )
          (2): SingleHeadAttention(
            (in_proj_q): Sequential(
              (0): Linear(in_features=256, out_features=128, bias=True)
              (1): GLU(dim=-1)
              (2): Linear(in_features=64, out_features=64, bias=True)
              (3): GLU(dim=-1)
              (4): Linear(in_features=32, out_features=32, bias=True)
            )
            (in_proj_k): Sequential(
              (0): Downsample()
              (1): Sequential(
                (0): Linear(in_features=256, out_features=128, bias=True)
                (1): GLU(dim=-1)
                (2): Linear(in_features=64, out_features=64, bias=True)
                (3): GLU(dim=-1)
                (4): Linear(in_features=32, out_features=32, bias=True)
              )
            )
            (in_proj_v): Sequential(
              (0): Downsample()
              (1): Sequential(
                (0): Linear(in_features=256, out_features=128, bias=True)
                (1): GLU(dim=-1)
                (2): Linear(in_features=64, out_features=64, bias=True)
                (3): GLU(dim=-1)
                (4): Linear(in_features=32, out_features=32, bias=True)
              )
            )
            (out_proj): Linear(in_features=32, out_features=32, bias=True)
          )
          (3): SingleHeadAttention(
            (in_proj_q): Sequential(
              (0): Linear(in_features=256, out_features=128, bias=True)
              (1): GLU(dim=-1)
              (2): Linear(in_features=64, out_features=64, bias=True)
              (3): GLU(dim=-1)
              (4): Linear(in_features=32, out_features=32, bias=True)
            )
            (in_proj_k): Sequential(
              (0): Downsample()
              (1): Sequential(
                (0): Linear(in_features=256, out_features=128, bias=True)
                (1): GLU(dim=-1)
                (2): Linear(in_features=64, out_features=64, bias=True)
                (3): GLU(dim=-1)
                (4): Linear(in_features=32, out_features=32, bias=True)
              )
            )
            (in_proj_v): Sequential(
              (0): Downsample()
              (1): Sequential(
                (0): Linear(in_features=256, out_features=128, bias=True)
                (1): GLU(dim=-1)
                (2): Linear(in_features=64, out_features=64, bias=True)
                (3): GLU(dim=-1)
                (4): Linear(in_features=32, out_features=32, bias=True)
              )
            )
            (out_proj): Linear(in_features=32, out_features=32, bias=True)
          )
          (4): SingleHeadAttention(
            (in_proj_q): Sequential(
              (0): Linear(in_features=256, out_features=128, bias=True)
              (1): GLU(dim=-1)
              (2): Linear(in_features=64, out_features=64, bias=True)
              (3): GLU(dim=-1)
              (4): Linear(in_features=32, out_features=32, bias=True)
            )
            (in_proj_k): Sequential(
              (0): Downsample()
              (1): Sequential(
                (0): Linear(in_features=256, out_features=128, bias=True)
                (1): GLU(dim=-1)
                (2): Linear(in_features=64, out_features=64, bias=True)
                (3): GLU(dim=-1)
                (4): Linear(in_features=32, out_features=32, bias=True)
              )
            )
            (in_proj_v): Sequential(
              (0): Downsample()
              (1): Sequential(
                (0): Linear(in_features=256, out_features=128, bias=True)
                (1): GLU(dim=-1)
                (2): Linear(in_features=64, out_features=64, bias=True)
                (3): GLU(dim=-1)
                (4): Linear(in_features=32, out_features=32, bias=True)
              )
            )
            (out_proj): Linear(in_features=32, out_features=32, bias=True)
          )
          (5): SingleHeadAttention(
            (in_proj_q): Sequential(
              (0): Linear(in_features=256, out_features=128, bias=True)
              (1): GLU(dim=-1)
              (2): Linear(in_features=64, out_features=64, bias=True)
              (3): GLU(dim=-1)
              (4): Linear(in_features=32, out_features=32, bias=True)
            )
            (in_proj_k): Sequential(
              (0): Downsample()
              (1): Sequential(
                (0): Linear(in_features=256, out_features=128, bias=True)
                (1): GLU(dim=-1)
                (2): Linear(in_features=64, out_features=64, bias=True)
                (3): GLU(dim=-1)
                (4): Linear(in_features=32, out_features=32, bias=True)
              )
            )
            (in_proj_v): Sequential(
              (0): Downsample()
              (1): Sequential(
                (0): Linear(in_features=256, out_features=128, bias=True)
                (1): GLU(dim=-1)
                (2): Linear(in_features=64, out_features=64, bias=True)
                (3): GLU(dim=-1)
                (4): Linear(in_features=32, out_features=32, bias=True)
              )
            )
            (out_proj): Linear(in_features=32, out_features=32, bias=True)
          )
          (6): SingleHeadAttention(
            (in_proj_q): Sequential(
              (0): Linear(in_features=256, out_features=128, bias=True)
              (1): GLU(dim=-1)
              (2): Linear(in_features=64, out_features=64, bias=True)
              (3): GLU(dim=-1)
              (4): Linear(in_features=32, out_features=32, bias=True)
            )
            (in_proj_k): Sequential(
              (0): Downsample()
              (1): Sequential(
                (0): Linear(in_features=256, out_features=128, bias=True)
                (1): GLU(dim=-1)
                (2): Linear(in_features=64, out_features=64, bias=True)
                (3): GLU(dim=-1)
                (4): Linear(in_features=32, out_features=32, bias=True)
              )
            )
            (in_proj_v): Sequential(
              (0): Downsample()
              (1): Sequential(
                (0): Linear(in_features=256, out_features=128, bias=True)
                (1): GLU(dim=-1)
                (2): Linear(in_features=64, out_features=64, bias=True)
                (3): GLU(dim=-1)
                (4): Linear(in_features=32, out_features=32, bias=True)
              )
            )
            (out_proj): Linear(in_features=32, out_features=32, bias=True)
          )
          (7): SingleHeadAttention(
            (in_proj_q): Sequential(
              (0): Linear(in_features=256, out_features=128, bias=True)
              (1): GLU(dim=-1)
              (2): Linear(in_features=64, out_features=64, bias=True)
              (3): GLU(dim=-1)
              (4): Linear(in_features=32, out_features=32, bias=True)
            )
            (in_proj_k): Sequential(
              (0): Downsample()
              (1): Sequential(
                (0): Linear(in_features=256, out_features=128, bias=True)
                (1): GLU(dim=-1)
                (2): Linear(in_features=64, out_features=64, bias=True)
                (3): GLU(dim=-1)
                (4): Linear(in_features=32, out_features=32, bias=True)
              )
            )
            (in_proj_v): Sequential(
              (0): Downsample()
              (1): Sequential(
                (0): Linear(in_features=256, out_features=128, bias=True)
                (1): GLU(dim=-1)
                (2): Linear(in_features=64, out_features=64, bias=True)
                (3): GLU(dim=-1)
                (4): Linear(in_features=32, out_features=32, bias=True)
              )
            )
            (out_proj): Linear(in_features=32, out_features=32, bias=True)
          )
          (out_proj): Linear(in_features=256, out_features=768, bias=True)
        )
        (in_proj_q): Linear(in_features=768, out_features=256, bias=True)
        (in_proj_k): Linear(in_features=768, out_features=256, bias=True)
        (in_proj_v): Linear(in_features=768, out_features=256, bias=True)
        (ln): LayerNorm((768,), eps=1e-05, elementwise_affine=True)
      )
      (6): SelfAttention(
        (attention): DownsampledMultiHeadAttention(
          (0): SingleHeadAttention(
            (in_proj_q): Sequential(
              (0): Linear(in_features=256, out_features=128, bias=True)
              (1): GLU(dim=-1)
              (2): Linear(in_features=64, out_features=64, bias=True)
              (3): GLU(dim=-1)
              (4): Linear(in_features=32, out_features=32, bias=True)
            )
            (in_proj_k): Sequential(
              (0): Downsample()
              (1): Sequential(
                (0): Linear(in_features=256, out_features=128, bias=True)
                (1): GLU(dim=-1)
                (2): Linear(in_features=64, out_features=64, bias=True)
                (3): GLU(dim=-1)
                (4): Linear(in_features=32, out_features=32, bias=True)
              )
            )
            (in_proj_v): Sequential(
              (0): Downsample()
              (1): Sequential(
                (0): Linear(in_features=256, out_features=128, bias=True)
                (1): GLU(dim=-1)
                (2): Linear(in_features=64, out_features=64, bias=True)
                (3): GLU(dim=-1)
                (4): Linear(in_features=32, out_features=32, bias=True)
              )
            )
            (out_proj): Linear(in_features=32, out_features=32, bias=True)
          )
          (1): SingleHeadAttention(
            (in_proj_q): Sequential(
              (0): Linear(in_features=256, out_features=128, bias=True)
              (1): GLU(dim=-1)
              (2): Linear(in_features=64, out_features=64, bias=True)
              (3): GLU(dim=-1)
              (4): Linear(in_features=32, out_features=32, bias=True)
            )
            (in_proj_k): Sequential(
              (0): Downsample()
              (1): Sequential(
                (0): Linear(in_features=256, out_features=128, bias=True)
                (1): GLU(dim=-1)
                (2): Linear(in_features=64, out_features=64, bias=True)
                (3): GLU(dim=-1)
                (4): Linear(in_features=32, out_features=32, bias=True)
              )
            )
            (in_proj_v): Sequential(
              (0): Downsample()
              (1): Sequential(
                (0): Linear(in_features=256, out_features=128, bias=True)
                (1): GLU(dim=-1)
                (2): Linear(in_features=64, out_features=64, bias=True)
                (3): GLU(dim=-1)
                (4): Linear(in_features=32, out_features=32, bias=True)
              )
            )
            (out_proj): Linear(in_features=32, out_features=32, bias=True)
          )
          (2): SingleHeadAttention(
            (in_proj_q): Sequential(
              (0): Linear(in_features=256, out_features=128, bias=True)
              (1): GLU(dim=-1)
              (2): Linear(in_features=64, out_features=64, bias=True)
              (3): GLU(dim=-1)
              (4): Linear(in_features=32, out_features=32, bias=True)
            )
            (in_proj_k): Sequential(
              (0): Downsample()
              (1): Sequential(
                (0): Linear(in_features=256, out_features=128, bias=True)
                (1): GLU(dim=-1)
                (2): Linear(in_features=64, out_features=64, bias=True)
                (3): GLU(dim=-1)
                (4): Linear(in_features=32, out_features=32, bias=True)
              )
            )
            (in_proj_v): Sequential(
              (0): Downsample()
              (1): Sequential(
                (0): Linear(in_features=256, out_features=128, bias=True)
                (1): GLU(dim=-1)
                (2): Linear(in_features=64, out_features=64, bias=True)
                (3): GLU(dim=-1)
                (4): Linear(in_features=32, out_features=32, bias=True)
              )
            )
            (out_proj): Linear(in_features=32, out_features=32, bias=True)
          )
          (3): SingleHeadAttention(
            (in_proj_q): Sequential(
              (0): Linear(in_features=256, out_features=128, bias=True)
              (1): GLU(dim=-1)
              (2): Linear(in_features=64, out_features=64, bias=True)
              (3): GLU(dim=-1)
              (4): Linear(in_features=32, out_features=32, bias=True)
            )
            (in_proj_k): Sequential(
              (0): Downsample()
              (1): Sequential(
                (0): Linear(in_features=256, out_features=128, bias=True)
                (1): GLU(dim=-1)
                (2): Linear(in_features=64, out_features=64, bias=True)
                (3): GLU(dim=-1)
                (4): Linear(in_features=32, out_features=32, bias=True)
              )
            )
            (in_proj_v): Sequential(
              (0): Downsample()
              (1): Sequential(
                (0): Linear(in_features=256, out_features=128, bias=True)
                (1): GLU(dim=-1)
                (2): Linear(in_features=64, out_features=64, bias=True)
                (3): GLU(dim=-1)
                (4): Linear(in_features=32, out_features=32, bias=True)
              )
            )
            (out_proj): Linear(in_features=32, out_features=32, bias=True)
          )
          (4): SingleHeadAttention(
            (in_proj_q): Sequential(
              (0): Linear(in_features=256, out_features=128, bias=True)
              (1): GLU(dim=-1)
              (2): Linear(in_features=64, out_features=64, bias=True)
              (3): GLU(dim=-1)
              (4): Linear(in_features=32, out_features=32, bias=True)
            )
            (in_proj_k): Sequential(
              (0): Downsample()
              (1): Sequential(
                (0): Linear(in_features=256, out_features=128, bias=True)
                (1): GLU(dim=-1)
                (2): Linear(in_features=64, out_features=64, bias=True)
                (3): GLU(dim=-1)
                (4): Linear(in_features=32, out_features=32, bias=True)
              )
            )
            (in_proj_v): Sequential(
              (0): Downsample()
              (1): Sequential(
                (0): Linear(in_features=256, out_features=128, bias=True)
                (1): GLU(dim=-1)
                (2): Linear(in_features=64, out_features=64, bias=True)
                (3): GLU(dim=-1)
                (4): Linear(in_features=32, out_features=32, bias=True)
              )
            )
            (out_proj): Linear(in_features=32, out_features=32, bias=True)
          )
          (5): SingleHeadAttention(
            (in_proj_q): Sequential(
              (0): Linear(in_features=256, out_features=128, bias=True)
              (1): GLU(dim=-1)
              (2): Linear(in_features=64, out_features=64, bias=True)
              (3): GLU(dim=-1)
              (4): Linear(in_features=32, out_features=32, bias=True)
            )
            (in_proj_k): Sequential(
              (0): Downsample()
              (1): Sequential(
                (0): Linear(in_features=256, out_features=128, bias=True)
                (1): GLU(dim=-1)
                (2): Linear(in_features=64, out_features=64, bias=True)
                (3): GLU(dim=-1)
                (4): Linear(in_features=32, out_features=32, bias=True)
              )
            )
            (in_proj_v): Sequential(
              (0): Downsample()
              (1): Sequential(
                (0): Linear(in_features=256, out_features=128, bias=True)
                (1): GLU(dim=-1)
                (2): Linear(in_features=64, out_features=64, bias=True)
                (3): GLU(dim=-1)
                (4): Linear(in_features=32, out_features=32, bias=True)
              )
            )
            (out_proj): Linear(in_features=32, out_features=32, bias=True)
          )
          (6): SingleHeadAttention(
            (in_proj_q): Sequential(
              (0): Linear(in_features=256, out_features=128, bias=True)
              (1): GLU(dim=-1)
              (2): Linear(in_features=64, out_features=64, bias=True)
              (3): GLU(dim=-1)
              (4): Linear(in_features=32, out_features=32, bias=True)
            )
            (in_proj_k): Sequential(
              (0): Downsample()
              (1): Sequential(
                (0): Linear(in_features=256, out_features=128, bias=True)
                (1): GLU(dim=-1)
                (2): Linear(in_features=64, out_features=64, bias=True)
                (3): GLU(dim=-1)
                (4): Linear(in_features=32, out_features=32, bias=True)
              )
            )
            (in_proj_v): Sequential(
              (0): Downsample()
              (1): Sequential(
                (0): Linear(in_features=256, out_features=128, bias=True)
                (1): GLU(dim=-1)
                (2): Linear(in_features=64, out_features=64, bias=True)
                (3): GLU(dim=-1)
                (4): Linear(in_features=32, out_features=32, bias=True)
              )
            )
            (out_proj): Linear(in_features=32, out_features=32, bias=True)
          )
          (7): SingleHeadAttention(
            (in_proj_q): Sequential(
              (0): Linear(in_features=256, out_features=128, bias=True)
              (1): GLU(dim=-1)
              (2): Linear(in_features=64, out_features=64, bias=True)
              (3): GLU(dim=-1)
              (4): Linear(in_features=32, out_features=32, bias=True)
            )
            (in_proj_k): Sequential(
              (0): Downsample()
              (1): Sequential(
                (0): Linear(in_features=256, out_features=128, bias=True)
                (1): GLU(dim=-1)
                (2): Linear(in_features=64, out_features=64, bias=True)
                (3): GLU(dim=-1)
                (4): Linear(in_features=32, out_features=32, bias=True)
              )
            )
            (in_proj_v): Sequential(
              (0): Downsample()
              (1): Sequential(
                (0): Linear(in_features=256, out_features=128, bias=True)
                (1): GLU(dim=-1)
                (2): Linear(in_features=64, out_features=64, bias=True)
                (3): GLU(dim=-1)
                (4): Linear(in_features=32, out_features=32, bias=True)
              )
            )
            (out_proj): Linear(in_features=32, out_features=32, bias=True)
          )
          (out_proj): Linear(in_features=256, out_features=1024, bias=True)
        )
        (in_proj_q): Linear(in_features=1024, out_features=256, bias=True)
        (in_proj_k): Linear(in_features=1024, out_features=256, bias=True)
        (in_proj_v): Linear(in_features=1024, out_features=256, bias=True)
        (ln): LayerNorm((1024,), eps=1e-05, elementwise_affine=True)
      )
    )
    (attproj): ModuleList(
      (0): Linear(in_features=512, out_features=256, bias=True)
      (1): Linear(in_features=512, out_features=256, bias=True)
      (2): Linear(in_features=512, out_features=256, bias=True)
      (3): Linear(in_features=512, out_features=256, bias=True)
      (4): Linear(in_features=768, out_features=256, bias=True)
      (5): Linear(in_features=768, out_features=256, bias=True)
      (6): Linear(in_features=1024, out_features=256, bias=True)
    )
    (fc2): Linear(in_features=1024, out_features=256, bias=True)
    (fc3): Linear(in_features=256, out_features=1000, bias=True)
  )
)
| model fconv_self_att_wp, criterion LabelSmoothedCrossEntropyCriterion
| num. model params: 41245032 (num. trained: 41245032)
| training on 2 GPUs
| max tokens per GPU = None and max sentences per GPU = 32
| no existing checkpoint found checkpoints/fconv_self_att_wp/v1/che/checkpoint_last.pt
| loading train data for epoch 0
| loaded 34338 examples from: ../format/BPE_1_000/train.triple-lex.triple
…
